{"format": "layers-model", "generatedBy": "keras v2.15.0", "convertedBy": "TensorFlow.js Converter v4.22.0", "modelTopology": {"keras_version": "2.15.0", "backend": "tensorflow", "model_config": {"class_name": "Functional", "config": {"name": "model", "trainable": true, "layers": [{"class_name": "InputLayer", "config": {"batch_input_shape": [null, 30, 258], "dtype": "float32", "sparse": false, "ragged": false, "name": "input_1"}, "name": "input_1", "inbound_nodes": []}, {"class_name": "TFOpLambda", "config": {"name": "tf.__operators__.add", "trainable": true, "dtype": "float32", "function": "__operators__.add"}, "name": "tf.__operators__.add", "inbound_nodes": [["input_1", 0, 0, {"y": [[… "name": null}]]}, {"class_name": "MultiHeadAttention", "config": {"name": "multi_head_attention", "trainable": true, "dtype": "float32", "num_heads": 4, "key_dim": 64, "value_dim": 64, "dropout": 0.0, "use_bias": true, "output_shape": null, "attention_axes": [1], "kernel_initializer": {"module": "keras.initializers", "class_name": "GlorotUniform", "config": {"seed": null}, "registered_name": null}, "bias_initializer": {"module": "keras.initializers", "class_name": "Zeros", "config": {}, "registered_name": null}, "kernel_regularizer": null, "bias_regularizer": null, "activity_regularizer": null, "kernel_constraint": null, "bias_constraint": null, "query_shape": [null, 30, 258], "key_shape": [null, 30, 258], "value_shape": [null, 30, 258]}, "name": "multi_head_attention", "inbound_nodes": [[["tf.__operators__.add", 0, 0, {"value": ["tf.__operators__.add", 0, 0]}]]]}, {"class_name": "Add", "config": {"name": "add", "trainable": true, "dtype": "float32"}, "name": "add", "inbound_nodes": [[["tf.__operators__.add", 0, 0, {}], ["multi_head_attention", 0, 0, {}]]]}, {"class_name": "LayerNormalization", "config": {"name": "layer_normalization", "trainable": true, "dtype": "float32", "axis": [2], "epsilon": 1e-06, "center": true, "scale": true, "beta_initializer": {"module": "keras.initializers", "class_name": "Zeros", "config": {}, "registered_name": null}, "gamma_initializer": {"module": "keras.initializers", "class_name": "Ones", "config": {}, "registered_name": null}, "beta_regularizer": null, "gamma_regularizer": null, "beta_constraint": null, "gamma_constraint": null}, "name": "layer_normalization", "inbound_nodes": [[["add", 0, 0, {}]]]}, {"class_name": "Dense", "config": {"name": "dense", "trainable": true, "dtype": "float32", "units": 128, "activation": "relu", "use_bias": true, "kernel_initializer": {"module": "keras.initializers", "class_name": "GlorotUniform", "config": {"seed": null}, "registered_name": null}, "bias_initializer": {"module": "keras.initializers", "class_name": "Zeros", "config": {}, "registered_name": null}, "kernel_regularizer": null, "bias_regularizer": null, "activity_regularizer": null, "kernel_constraint": null, "bias_constraint": null}, "name": "dense", "inbound_nodes": [[["layer_normalization", 0, 0, {}]]]}, {"class_name": "Dense", "config": {"name": "dense_1", "trainable": true, "dtype": "float32", "units": 258, "activation": "linear", "use_bias": true, "kernel_initializer": {"module": "keras.initializers", "class_name": "GlorotUniform", "config": {"seed": null}, "registered_name": null}, "bias_initializer": {"module": "keras.initializers", "class_name": "Zeros", "config": {}, "registered_name": null}, "kernel_regularizer": null, "bias_regularizer": null, "activity_regularizer": null, "kernel_constraint": null, "bias_constraint": null}, "name": "dense_1", "inbound_nodes": [[["dense", 0, 0, {}]]]}, {"class_name": "Add", "config": {"name": "add_1", "trainable": true, "dtype": "float32"}, "name": "add_1", "inbound_nodes": [[["layer_normalization", 0, 0, {}], ["dense_1", 0, 0, {}]]]}, {"class_name": "LayerNormalization", "config": {"name": "layer_normalization_1", "trainable": true, "dtype": "float32", "axis": [2], "epsilon": 1e-06, "center": true, "scale": true, "beta_initializer": {"module": "keras.initializers", "class_name": "Zeros", "config": {}, "registered_name": null}, "gamma_initializer": {"module": "keras.initializers", "class_name": "Ones", "config": {}, "registered_name": null}, "beta_regularizer": null, "gamma_regularizer": null, "beta_constraint": null, "gamma_constraint": null}, "name": "layer_normalization_1", "inbound_nodes": [[["add_1", 0, 0, {}]]]}, {"class_name": "GlobalAveragePooling1D", "config": {"name": "global_average_pooling1d", "trainable": true, "dtype": "float32", "data_format": "channels_last", "keepdims": false}, "name": "global_average_pooling1d", "inbound_nodes": [[["layer_normalization_1", 0, 0, {}]]]}, {"class_name": "Dropout", "config": {"name": "dropout", "trainable": true, "dtype": "float32", "rate": 0.4, "noise_shape": null, "seed": null}, "name": "dropout", "inbound_nodes": [[["global_average_pooling1d", 0, 0, {}]]]}, {"class_name": "Dense", "config": {"name": "dense_2", "trainable": true, "dtype": "float32", "units": 64, "activation": "relu", "use_bias": true, "kernel_initializer": {"module": "keras.initializers", "class_name": "GlorotUniform", "config": {"seed": null}, "registered_name": null}, "bias_initializer": {"module": "keras.initializers", "class_name": "Zeros", "config": {}, "registered_name": null}, "kernel_regularizer": null, "bias_regularizer": null, "activity_regularizer": null, "kernel_constraint": null, "bias_constraint": null}, "name": "dense_2", "inbound_nodes": [[["dropout", 0, 0, {}]]]}, {"class_name": "Dense", "config": {"name": "dense_3", "trainable": true, "dtype": "float32", "units": 29, "activation": "softmax", "use_bias": true, "kernel_initializer": {"module": "keras.initializers", "class_name": "GlorotUniform", "config": {"seed": null}, "registered_name": null}, "bias_initializer": {"module": "keras.initializers", "class_name": "Zeros", "config": {}, "registered_name": null}, "kernel_regularizer": null, "bias_regularizer": null, "activity_regularizer": null, "kernel_constraint": null, "bias_constraint": null}, "name": "dense_3", "inbound_nodes": [[["dense_2", 0, 0, {}]]]}], "input_layers": [["input_1", 0, 0]], "output_layers": [["dense_3", 0, 0]]}}, "training_config": {"loss": "categorical_crossentropy", "metrics": [[{"class_name": "MeanMetricWrapper", "config": {"name": "categorical_accuracy", "dtype": "float32", "fn": "categorical_accuracy"}}]], "weighted_metrics": null, "loss_weights": null, "optimizer_config": {"class_name": "Custom>Adam", "config": {"name": "Adam", "weight_decay": null, "clipnorm": null, "global_clipnorm": null, "clipvalue": null, "use_ema": false, "ema_momentum": 0.99, "ema_overwrite_frequency": null, "jit_compile": false, "is_legacy_optimizer": false, "learning_rate": 6.25000029685907e-05, "beta_1": 0.9, "beta_2": 0.999, "epsilon": 1e-07, "amsgrad": false}}}}, "weightsManifest": [{"paths": ["group1-shard1of1.bin"], "weights": [{"name": "dense/kernel", "shape": [258, 128], "dtype": "float32"}, {"name": "dense/bias", "shape": [128], "dtype": "float32"}, {"name": "dense_1/kernel", "shape": [128, 258], "dtype": "float32"}, {"name": "dense_1/bias", "shape": [258], "dtype": "float32"}, {"name": "dense_2/kernel", "shape": [258, 64], "dtype": "float32"}, {"name": "dense_2/bias", "shape": [64], "dtype": "float32"}, {"name": "dense_3/kernel", "shape": [64, 29], "dtype": "float32"}, {"name": "dense_3/bias", "shape": [29], "dtype": "float32"}, {"name": "layer_normalization/gamma", "shape": [258], "dtype": "float32"}, {"name": "layer_normalization/beta", "shape": [258], "dtype": "float32"}, {"name": "layer_normalization_1/gamma", "shape": [258], "dtype": "float32"}, {"name": "layer_normalization_1/beta", "shape": [258], "dtype": "float32"}, {"name": "multi_head_attention/query/kernel", "shape": [258, 4, 64], "dtype": "float32"}, {"name": "multi_head_attention/query/bias", "shape": [4, 64], "dtype": "float32"}, {"name": "multi_head_attention/key/kernel", "shape": [258, 4, 64], "dtype": "float32"}, {"name": "multi_head_attention/key/bias", "shape": [4, 64], "dtype": "float32"}, {"name": "multi_head_attention/value/kernel", "shape": [258, 4, 64], "dtype": "float32"}, {"name": "multi_head_attention/value/bias", "shape": [4, 64], "dtype": "float32"}, {"name": "multi_head_attention/attention_output/kernel", "shape": [4, 64, 258], "dtype": "float32"}, {"name": "multi_head_attention/attention_output/bias", "shape": [258], "dtype": "float32"}]}]}